…
, tracker=botsort.yaml, translate=0.1, val=True, verbose=True, vid_stride=1, visualize=False, warmup_bias_lr=0.1, warmup_epochs=3.0, warmup_momentum=0.8, weight_decay=0.0005, workers=8, workspace=None

#   Downloading https://ultralytics.com/assets/Arial.ttf to '/root/.config/Ultralytics/Arial.ttf'...

#   100%|â–ˆâ–ˆâ–ˆâ–ˆâ–ˆâ–ˆâ–ˆâ–ˆâ–ˆâ–ˆ| 755k/755k [00:00<00:00, 129MB/s]
#   Overriding model.yaml nc=80 with nc=8

#   

#                      from  n    params  module                                       arguments                     

#     0                  -1  1       464  ultralytics.nn.modules.conv.Conv             [3, 16, 3, 2]                 

#     1                  -1  1      4672  ultralytics.nn.modules.conv.Conv             [16, 32, 3, 2]                

#     2                  -1  1      6640  ultralytics.nn.modules.block.C3k2            [32, 64, 1, False, 0.25]      

#     3                  -1  1     36992  ultralytics.nn.modules.conv.Conv             [64, 64, 3, 2]                

#     4                  -1  1     26080  ultralytics.nn.modules.block.C3k2            [64, 128, 1, False, 0.25]     

#     5                  -1  1    147712  ultralytics.nn.modules.conv.Conv             [128, 128, 3, 2]              

#     6                  -1  1     87040  ultralytics.nn.modules.block.C3k2            [128, 128, 1, True]           

#     7                  -1  1    295424  ultralytics.nn.modules.conv.Conv             [128, 256, 3, 2]              

#     8                  -1  1    346112  ultralytics.nn.modules.block.C3k2            [256, 256, 1, True]           

#     9                  -1  1    164608  ultralytics.nn.modules.block.SPPF            [256, 256, 5]                 

#    10                  -1  1    249728  ultralytics.nn.modules.block.C2PSA           [256, 256, 1]                 

#    11                  -1  1         0  torch.nn.modules.upsampling.Upsample         [None, 2, 'nearest']          

#    12             [-1, 6]  1         0  ultralytics.nn.modules.conv.Concat           [1]                           

#    13                  -1  1    111296  ultralytics.nn.modules.block.C3k2            [384, 128, 1, False]          

#    14                  -1  1         0  torch.nn.modules.upsampling.Upsample         [None, 2, 'nearest']          

#    15             [-1, 4]  1         0  ultralytics.nn.modules.conv.Concat           [1]                           

#    16                  -1  1     32096  ultralytics.nn.modules.block.C3k2            [256, 64, 1, False]           

#    17                  -1  1     36992  ultralytics.nn.modules.conv.Conv             [64, 64, 3, 2]                

#    18            [-1, 13]  1         0  ultralytics.nn.modules.conv.Concat           [1]                           

#    19                  -1  1     86720  ultralytics.nn.modules.block.C3k2            [192, 128, 1, False]          

#    20                  -1  1    147712  ultralytics.nn.modules.conv.Conv             [128, 128, 3, 2]              

#    21            [-1, 10]  1         0  ultralytics.nn.modules.conv.Concat           [1]                           

#    22                  -1  1    378880  ultralytics.nn.modules.block.C3k2            [384, 256, 1, True]           

#    23        [16, 19, 22]  1    432232  ultralytics.nn.modules.head.Detect           [8, [64, 128, 256]]           

#   

#   YOLO11n summary: 181 layers, 2,591,400 parameters, 2,591,384 gradients, 6.4 GFLOPs

#   

#   Transferred 448/499 items from pretrained weights

#   Freezing layer 'model.23.dfl.conv.weight'

#   [34m[1mAMP: [0mrunning Automatic Mixed Precision (AMP) checks...

#   [34m[1mAMP: [0mchecks passed âœ…

#   [34m[1mtrain: [0mFast image access âœ… (ping: 0.0Â±0.0 ms, read: 1094.0Â±468.7 MB/s, size: 46.5 KB)
…
 tracker=botsort.yaml, translate=0.1, val=True, verbose=True, vid_stride=1, visualize=False, warmup_bias_lr=0.1, warmup_epochs=3.0, warmup_momentum=0.8, weight_decay=0.0005, workers=8, workspace=None

#   Downloading https://ultralytics.com/assets/Arial.ttf to '/root/.config/Ultralytics/Arial.ttf'...

#   100%|â–ˆâ–ˆâ–ˆâ–ˆâ–ˆâ–ˆâ–ˆâ–ˆâ–ˆâ–ˆ| 755k/755k [00:00<00:00, 85.9MB/s]
#   Overriding model.yaml nc=80 with nc=8

#   

#                      from  n    params  module                                       arguments                     

#     0                  -1  1       464  ultralytics.nn.modules.conv.Conv             [3, 16, 3, 2]                 

#     1                  -1  1      4672  ultralytics.nn.modules.conv.Conv             [16, 32, 3, 2]                

#     2                  -1  1      7360  ultralytics.nn.modules.block.C2f             [32, 32, 1, True]             

#     3                  -1  1     18560  ultralytics.nn.modules.conv.Conv             [32, 64, 3, 2]                

#     4                  -1  2     49664  ultralytics.nn.modules.block.C2f             [64, 64, 2, True]             

#     5                  -1  1     73984  ultralytics.nn.modules.conv.Conv             [64, 128, 3, 2]               

#     6                  -1  2    197632  ultralytics.nn.modules.block.C2f             [128, 128, 2, True]           

#     7                  -1  1    295424  ultralytics.nn.modules.conv.Conv             [128, 256, 3, 2]              

#     8                  -1  1    460288  ultralytics.nn.modules.block.C2f             [256, 256, 1, True]           

#     9                  -1  1    164608  ultralytics.nn.modules.block.SPPF            [256, 256, 5]                 

#    10                  -1  1         0  torch.nn.modules.upsampling.Upsample         [None, 2, 'nearest']          

#    11             [-1, 6]  1         0  ultralytics.nn.modules.conv.Concat           [1]                           

#    12                  -1  1    148224  ultralytics.nn.modules.block.C2f             [384, 128, 1]                 

#    13                  -1  1         0  torch.nn.modules.upsampling.Upsample         [None, 2, 'nearest']          

#    14             [-1, 4]  1         0  ultralytics.nn.modules.conv.Concat           [1]                           

#    15                  -1  1     37248  ultralytics.nn.modules.block.C2f             [192, 64, 1]                  

#    16                  -1  1     36992  ultralytics.nn.modules.conv.Conv             [64, 64, 3, 2]                

#    17            [-1, 12]  1         0  ultralytics.nn.modules.conv.Concat           [1]                           

#    18                  -1  1    123648  ultralytics.nn.modules.block.C2f             [192, 128, 1]                 

#    19                  -1  1    147712  ultralytics.nn.modules.conv.Conv             [128, 128, 3, 2]              

#    20             [-1, 9]  1         0  ultralytics.nn.modules.conv.Concat           [1]                           

#    21                  -1  1    493056  ultralytics.nn.modules.block.C2f             [384, 256, 1]                 

#    22        [15, 18, 21]  1    752872  ultralytics.nn.modules.head.Detect           [8, [64, 128, 256]]           

#   

#   Model summary: 129 layers, 3,012,408 parameters, 3,012,392 gradients, 8.2 GFLOPs

#   

#   Transferred 319/355 items from pretrained weights

#   Freezing layer 'model.22.dfl.conv.weight'

#   [34m[1mAMP: [0mrunning Automatic Mixed Precision (AMP) checks...

#   [34m[1mAMP: [0mchecks passed âœ…

#   [34m[1mtrain: [0mFast image access âœ… (ping: 0.0Â±0.0 ms, read: 1053.5Â±509.7 MB/s, size: 46.5 KB)
…
